2024-08-29,16:18:17 | INFO | Running with a single process. Device cuda:0.
2024-08-29,16:18:17 | INFO | Loaded ViT-B-32 model config.
2024-08-29,16:18:19 | INFO | Loading pretrained ViT-B-32 weights (laion2b_s34b_b79k).
2024-08-29,16:18:20 | INFO | Model:
2024-08-29,16:18:20 | INFO | CLIP(
  (visual): VisionTransformer(
    (conv1): Conv2d(3, 768, kernel_size=(32, 32), stride=(32, 32), bias=False)
    (patch_dropout): Identity()
    (ln_pre): LayerNorm((768,), eps=1e-05, elementwise_affine=True)
    (transformer): Transformer(
      (resblocks): ModuleList(
        (0-11): 12 x ResidualAttentionBlock(
          (ln_1): LayerNorm((768,), eps=1e-05, elementwise_affine=True)
          (attn): MultiheadAttention(
            (out_proj): NonDynamicallyQuantizableLinear(in_features=768, out_features=768, bias=True)
          )
          (ls_1): Identity()
          (ln_2): LayerNorm((768,), eps=1e-05, elementwise_affine=True)
          (mlp): Sequential(
            (c_fc): Linear(in_features=768, out_features=3072, bias=True)
            (gelu): GELU(approximate='none')
            (c_proj): Linear(in_features=3072, out_features=768, bias=True)
          )
          (ls_2): Identity()
        )
      )
    )
    (ln_post): LayerNorm((768,), eps=1e-05, elementwise_affine=True)
  )
  (transformer): Transformer(
    (resblocks): ModuleList(
      (0-11): 12 x ResidualAttentionBlock(
        (ln_1): LayerNorm((512,), eps=1e-05, elementwise_affine=True)
        (attn): MultiheadAttention(
          (out_proj): NonDynamicallyQuantizableLinear(in_features=512, out_features=512, bias=True)
        )
        (ls_1): Identity()
        (ln_2): LayerNorm((512,), eps=1e-05, elementwise_affine=True)
        (mlp): Sequential(
          (c_fc): Linear(in_features=512, out_features=2048, bias=True)
          (gelu): GELU(approximate='none')
          (c_proj): Linear(in_features=2048, out_features=512, bias=True)
        )
        (ls_2): Identity()
      )
    )
  )
  (token_embedding): Embedding(49408, 512)
  (ln_final): LayerNorm((512,), eps=1e-05, elementwise_affine=True)
)
2024-08-29,16:18:20 | INFO | Params:
2024-08-29,16:18:20 | INFO |   accum_freq: 1
2024-08-29,16:18:20 | INFO |   aug_cfg: {}
2024-08-29,16:18:20 | INFO |   batch_size: 100
2024-08-29,16:18:20 | INFO |   beta1: 0.9
2024-08-29,16:18:20 | INFO |   beta2: 0.99
2024-08-29,16:18:20 | INFO |   checkpoint_path: C:/Users/INDA_HIWI/Desktop/plot_oc_flickr_train_ae/oc/coco_logs/2024_08_29-16_18_17-model_ViT-B-32-lr_1e-08-b_100-j_0-p_fp32\checkpoints
…
